try02_RBM/phm_trained_rbm.pt (torch, 135651 bytes, 3 tensors)

W f4 [1600, 20]
0	0xbde54bbb	-0.11196085
1	0x3e80906e	0.2511019
2	0x3def5c99	0.116875835
3	0xbe148b57	-0.14506279
4	0xbea0113b	-0.31263146
5	0xbea79080	-0.32727432
6	0x3e26d8a0	0.16293573
7	0x3a65ce97	0.0008766441
8	0x3f10be72	0.56540596
9	0xbe296066	-0.1654068
10	0xbe2f9b2d	-0.17149039
11	0xbe664a2c	-0.22489232
12	0x3d852ce8	0.06502706
13	0xbe9a0c8c	-0.30087698
14	0x3e828e27	0.2549908
15	0x3e221519	0.1582836
16	0x3eec07fe	0.46099848
17	0xbe6d5e1b	-0.2318043
18	0xbddcd9f1	-0.107837565
19	0xbe7b6cff	-0.24553297
20	0x3d588c6c	0.05286829
21	0xbe06a2d8	-0.13148057
22	0x3d9ac409	0.07556922
23	0x3ebd031a	0.3691643
24	0x3db9aa4b	0.09065684
25	0xbe939b08	-0.28829217
26	0xbd3ce0ef	-0.04611295
27	0x3e0068ee	0.12540027
28	0xbb0c9306	-0.0021449937
29	0xbe5a0386	-0.21290407
30	0xbe25a7dc	-0.16177315
31	0xbdbce47d	-0.09223268
32	0xbe02702c	-0.12738103
33	0x3e951586	0.29117984
34	0xbed18dec	-0.4092859
35	0xbd3f3434	-0.046680644
36	0xbe10886b	-0.1411454
37	0x3d3ac353	0.045596432
38	0x3e170f35	0.14751895
39	0x3dc5759d	0.096415736
40	0x3d261b36	0.040553294
41	0x3da577a4	0.0807946
42	0xbe880322	-0.2656489
43	0x3d396abb	0.0452678
44	0x3e3c185f	0.18368672
45	0xbe5034d5	-0.20332654
46	0xbe8ccf72	-0.27502018
47	0xbda0e01f	-0.07855248
48	0xbe3a6860	-0.18203878
49	0x3e509760	0.20370245
50	0xbf1bc4a5	-0.6084693
51	0xbdd9037e	-0.10596369
52	0xbe91425e	-0.28370947
53	0xbe6d7471	-0.2318895
54	0x3e81bdae	0.25340027
55	0xbd76ca20	-0.060251355
56	0x3d284eb6	0.04109069
57	0xbce2d7de	-0.027690824
58	0xbe977c21	-0.2958689
59	0x3dbcc180	0.09216595
60	0xbc09ab00	-0.008402586
61	0x3d32ade3	0.043622863
62	0x3e08a3b4	0.13343698
63	0xbe8c88bb	-0.27448067
64	0xbdad79a2	-0.08470465
65	0xbd243fc5	-0.040099878
66	0xbe443f80	-0.19164848
67	0xbdacf52f	-0.084452026
68	0xbf150ee0	-0.5822582
69	0xbe5aa382	-0.21351436
70	0x3ee7b1fd	0.45252982
71	0x3eb2229d	0.34792033
72	0xbd9f4853	-0.077774666
73	0x3d92f512	0.0717565
74	0x3c8056e1	0.015666427
75	0xbef33f01	-0.47509006
76	0xbcf25140	-0.029579759
77	0x3e6a2014	0.228638
78	0xbb87f162	-0.004148648
79	0xbda002e2	-0.0781305
80	0x3e69942a	0.22810426
81	0xbe235f6b	-0.15954368
82	0x3e8bd0fc	0.2730788
83	0x3d643196	0.05571135
84	0xbdbb13bf	-0.09134626
85	0x3e41d864	0.18930203
86	0x3e0d1b61	0.13779975
87	0xbe237c55	-0.15965398
88	0x3daaf810	0.083480954
89	0xbe62200a	-0.22082534
90	0x3e205e18	0.15660894
91	0xbe366ca8	-0.17814887
92	0xbde90d12	-0.11379446
93	0x3e804e77	0.25059864
94	0xbe253617	-0.16133915
95	0xbc8cf829	-0.017208176
96	0x3bb45bb3	0.0055040955
97	0x3d0e1378	0.034686536
98	0x3e51b09e	0.2047753
99	0xbf024ade	-0.5089549
100	0xbe0cb7ff	-0.13742064
101	0xbe491e3f	-0.19640444
102	0xbe9dce8d	-0.30821648
103	0xbeaf75bf	-0.3426952
104	0x3eb63b76	0.3559224
105	0xbd65b3cd	-0.056079675
106	0xbe4980d1	-0.19678046
107	0xbe98c247	-0.29835722
108	0xbdb3f5d1	-0.0878712
109	0xbcefa825	-0.029254982
110	0xbf029dc6	-0.51021993
111	0xbeb865db	-0.3601521
112	0xbedab647	-0.42717192
113	0xbe9e7da4	-0.3095523
114	0xbdc8284d	-0.09773312
115	0x3eaa127d	0.3321723
116	0x3dbdab99	0.09261245
117	0xbdb2ff46	-0.08740096
118	0xbde5bc05	-0.112175025
119	0xbe373935	-0.17892917
120	0xbe39d59f	-0.18147896
121	0x3d25442a	0.04034821
122	0x3e439bac	0.19102353
123	0xbd8a8dcc	-0.06765327
124	0x3e853056	0.2601344
125	0xbd3ce6ab	-0.04611842
126	0xbde9c06c	-0.11413655
127	0xbe8750ca	-0.26428825
128	0xbe23426d	-0.15943308
129	0x3e5bdf6d	0.21471949
130	0x3e2f795b	0.17136137
131	0xbe86057f	-0.26176068
132	0x3d14b897	0.03630885
133	0xbdd00cb1	-0.10158671
134	0x3e4a6ab9	0.19767274
135	0x3d69aa16	0.057046972
136	0xbe6a1278	-0.22858608
137	0x3d810dff	0.06301498
138	0x3e7ea015	0.24865754
139	0x3e92bedc	0.2866124
140	0xbc60aab3	-0.013712573
141	0xbe533a30	-0.20627666
142	0xbde53dc5	-0.11193422
143	0x3d14f3e0	0.03636539
144	0xbdfd3143	-0.123629116
145	0x3cf95858	0.030437633
146	0x3c8a489f	0.016880332
147	0x3bc4584a	0.00599197
148	0xbe1fdcb2	-0.15611532
149	0x3da00348	0.07813126
150	0xbe19e85a	-0.15030041
151	0x3e7c4a9a	0.24637833
152	0xbeea0f0f	-0.45714614
153	0x3dc5a4de	0.096505865
154	0x3e5e5478	0.2171191
155	0x3e407659	0.18795146
156	0x3e934051	0.28760007
157	0x3e7ddacb	0.24790494
158	0xbdb65e19	-0.089046665
159	0x3c18d17f	0.0093272915
160	0xbe706f5a	-0.23479977
161	0xbe85d8bb	-0.26141915
162	0x3d52cfe4	0.05146779
163	0xbe31d73e	-0.17367265
164	0x3f05220c	0.52005076
165	0xbe94fa66	-0.2909729
166	0x3ee9e55c	0.456828
167	0x3d8e408d	0.06945906
168	0x3da6936e	0.08133589
169	0xbe650883	-0.22366528
170	0xbec42896	-0.38312215
171	0xbe0f11f2	-0.1397169
172	0xbee4b493	-0.44669017
173	0xbea02901	-0.31281283
174	0x3dc93e51	0.09826339
175	0xbeffe5b9	-0.49979952
176	0x3e11056f	0.14162229
177	0x3e27fe77	0.16405664
178	0xbc9cadea	-0.019125897
179	0x3e479cef	0.19493459
180	0xbe90a3ff	-0.2825012
181	0xbd3255d1	-0.043538872
182	0xbde18556	-0.1101176
183	0x3e31d20b	0.17365281
184	0x3c3523bc	0.011055883
185	0xbde68c71	-0.11257256
186	0xbe2f7cf1	-0.17137505
187	0xbda39017	-0.07986467
188	0xbe446c00	-0.19181824
189	0x3d3d5b27	0.046229508
190	0x3e6ec427	0.23317014
191	0xbdb6c183	-0.08923628
192	0x3c3bfec7	0.011474318
193	0x3e22b6c8	0.15890038
194	0x3ed0835e	0.40725225
195	0x3e2d9445	0.16951092
196	0xbd22d78b	-0.03975634
197	0xbe92b73d	-0.28655425
198	0xbea3a502	-0.31961828
199	0xbe94db2f	-0.29073474
200	0xbd0f8a38	-0.035043925
201	0x3ea4e294	0.32204115
202	0xbf2ee7ad	-0.6832226
203	0xbf05a183	-0.5219957
204	0xbcdbe0c0	-0.026840568
205	0xbe3bb36f	-0.18330167
206	0xbef82b9b	-0.48470768
207	0x3d9682ef	0.07349192
208	0x3c75fb6a	0.015013555
209	0xbeac8235	-0.3369309
210	0x3da500b0	0.08056772
211	0x3df3b6b4	0.11900082
212	0x3e350f81	0.17681696
213	0x3e172fe9	0.1476437
214	0x3f1b94c3	0.6077387
215	0x3e36e100	0.17859268
216	0xbea0cf82	-0.31408316
217	0xbd827ab5	-0.06371061
218	0x3b5302ab	0.0032197635
219	0x3e5a22b4	0.213023
220	0x3f07f697	0.5311064
221	0xbdb3e77e	-0.08784388
222	0x3cf130cf	0.029442219
223	0xbe0b8ec8	-0.13628685
224	0x3db2ffdf	0.0874021
225	0x3d4eba1f	0.050470468
226	0xbd2344a9	-0.0398604
227	0xbe7e20ea	-0.24817243
228	0xbbee62b1	-0.0072749485
229	0x3f2232de	0.6335887
230	0xbe97a6b4	-0.29619372
231	0x3f3d9114	0.74049497
232	0xbe707f5d	-0.23486085
233	0xbdaf0099	-0.08545036
234	0x3e57c773	0.21072178
235	0x3caaa2c1	0.02082956
236	0x3d17abd6	0.03702911
237	0xbe2ea214	-0.17054015
238	0xbef23382	-0.47304922
239	0x3e57d23a	0.21076289
240	0xbe48d969	-0.19614185
241	0xbdc6557d	-0.09684274
242	0x3ec3f201	0.38270572
243	0x3e8d6890	0.27618837
244	0xbe88ecf1	-0.26743272
245	0xbd7490bc	-0.059708342
246	0xbe8e279e	-0.277646
247	0xbdddddfe	-0.10833357
248	0xbf368a60	-0.71304893
249	0x3d2824d4	0.041050747
250	0xbedf22a6	-0.43581122
251	0x3e6da51d	0.23207517
252	0x3df53121	0.11972261
253	0x3e6e1f13	0.23254041
254	0xbea29bd2	-0.31759506
255	0x3e090263	0.13379817

vb f4 [1, 20]
0	0xbcc9d7eb	-0.02463909
1	0xbcb8f9c2	-0.022580031
2	0xbcbcce3f	-0.023047565
3	0xbcfd2c54	-0.030904926
4	0xbcff93bf	-0.03119838
5	0xbcb9f1b5	-0.022698263
6	0xbd0873a3	-0.033313405
7	0xbcc00d1d	-0.023443753
8	0xbcca913a	-0.024727453
9	0xbcbb7739	-0.022883998
10	0xbd034884	-0.03205158
11	0xbcbb1f1c	-0.022841983
12	0xbcbded34	-0.023184396
13	0xbcc56887	-0.024097694
14	0xbce8b5ca	-0.028406996
15	0xbcaaf7d8	-0.020870134
16	0xbc9b656b	-0.018969258
17	0xbcb58815	-0.022159616
18	0xbcbeb2c9	-0.02327861
19	0xbceba5db	-0.02876561

hb f4 [1, 1600]
0	0x3c1bc5ab	0.009507577
1	0x3ba3143c	0.0049767774
2	0x3d00228b	0.031282943
3	0x3d2cdca6	0.042202614
4	0xbc40e829	-0.011774101
5	0x3d05d6c9	0.03267554
6	0xbc9764c7	-0.018480672
7	0xbc7145e7	-0.014726139
8	0x3cb26d7f	0.021780727
9	0x3cba3a6d	0.022732938
10	0x3cccd2fb	0.025002947
11	0xbd0c7e5b	-0.03430019
12	0x3cccc5f0	0.024996728
13	0x3ca2aae5	0.01985688
14	0x3c8b64f0	0.017015904
15	0x3c611dcb	0.013740013
16	0x3ce7aa42	0.028279427
17	0xbcbfdc39	-0.02342044
18	0x3d237c53	0.039913487
19	0x3cd7d61c	0.026347212
20	0x3c83e234	0.016099073
21	0xbb762b8e	-0.0037562582
22	0xbc4c3094	-0.012462754
23	0x3cbb2f32	0.022849653
24	0x3d0835d7	0.03325447
25	0xbc2adc95	-0.010428567
26	0xbcbd92d7	-0.023141308
27	0x3d06c33c	0.032901034
28	0xbc857403	-0.01629067
29	0x3bd45caf	0.0064807753
30	0xbc4041ca	-0.011734435
31	0x3c8e6dcc	0.01738634
32	0x3d0a3104	0.03373815
33	0xbd02cff4	-0.0319366
34	0x3d078d68	0.03309384
35	0x3d122673	0.0356812
36	0x3d03fde4	0.03222455
37	0x3cf045d4	0.029330172
38	0x3cb5203f	0.022110103
39	0x3d0f7f6a	0.03503362
40	0x3b9e3507	0.0048280987
41	0x3d1583b3	0.03650255
42	0xbcfee3a0	-0.0311144
43	0xbcb0bf28	-0.021575525
44	0xbd1b40c4	-0.037903562
45	0xbd13892c	-0.03601949
46	0x3cb73afb	0.022366991
47	0x3cc93fc4	0.024566539
48	0xbb188cb9	-0.0023277237
49	0xbc8c47a1	-0.017124
50	0xbcb0143b	-0.021494022
51	0xbcd15bc0	-0.025556445
52	0x3c26ee81	0.0101887
53	0xbcb0c197	-0.021576686
54	0x3d00db67	0.03145924
55	0x3d081af3	0.033228826
56	0xbcf9f798	-0.03051357
57	0xbbc5ffb7	-0.0060424465
58	0x3cc7632c	0.024339281
59	0x3cb9d181	0.022682907
60	0x3b564de0	0.0032700226
61	0x3d0c9e1a	0.034330465
62	0x3d223a6c	0.039606497
63	0xbcea40bb	-0.028595319
64	0x3d095118	0.033524603
65	0xbc2c6cae	-0.010523958
66	0xbc8c460a	-0.017123241
67	0xbce8e069	-0.02842732
68	0xbcc13d3b	-0.023588767
69	0xbc8b3672	-0.016993735
70	0x3c8b3c61	0.016996564
71	0x3cf7bfcb	0.030242821
72	0xbc8a9c63	-0.016920274
73	0x3cfca92a	0.030842382
74	0xbc126068	-0.008934118
75	0x3ce69082	0.028145079
76	0x3a88b1b2	0.0010428934
77	0x3d120556	0.03564962
78	0xbcfd7187	-0.030937923
79	0xbcf16bec	-0.029470406
80	0x3c9f8565	0.019472787
81	0xbc42b58d	-0.011884105
82	0x3b7793d5	0.0037777324
83	0x3d14927a	0.036272503
84	0x3ceb254f	0.028704314
85	0xbcc76ee2	-0.024344865
86	0xbcccddbe	-0.025008079
87	0x3d0dbac2	0.034601934
88	0xbd0ee2f8	-0.034884423
89	0x3cab2e41	0.020896079
90	0xbd011be1	-0.031520728
91	0xbcc9f6bc	-0.024653785
92	0x3d2b25cb	0.04178409
93	0x3cdbbff6	0.026824933
94	0x3cdb39ae	0.026760902
95	0x3d0ceb5b	0.03440414
96	0x3ceefe72	0.029174063
97	0xbc90c2ac	-0.017670952
98	0x3c38109f	0.0112344315
99	0x3ca4cc72	0.020117018
100	0x3ca3a8dc	0.01997798
101	0x3cf7fcdc	0.03027194
102	0x3d08ef5d	0.0334314
103	0x3b90a9ef	0.004414789
104	0x3cdd2d23	0.026999062
105	0xbc9c02b0	-0.01904425
106	0xbae620cc	-0.0017557382
107	0x3d12fe8a	0.03588728
108	0x3d0ae4d9	0.033909652
109	0x3c97740b	0.01848795
110	0x3c895a93	0.016766822
111	0x3c35724c	0.011074614
112	0x3d1050ec	0.035233423
113	0xbce4100d	-0.027839685
114	0xbd12e087	-0.035858657
115	0x3bd3e290	0.0064662173
116	0x3d097444	0.033558145
117	0xbcad7993	-0.021176135
118	0x3cb24680	0.021762133
119	0xbccbfb53	-0.024900114
120	0x3d13b697	0.036062803
121	0x3c78d2ed	0.015187007
122	0x3ca33f98	0.019927785
123	0xbc7bce58	-0.01536902
124	0xbce8763f	-0.028376697
125	0x3cc0adff	0.023520468
126	0x3cdef4b3	0.027216291
127	0x3baabbbe	0.005210369
128	0xbc660022	-0.014038118
129	0x3d00cd15	0.03144558
130	0xbc0a8ea2	-0.008456858
131	0x3d04e6f1	0.032446805
132	0x3cc3d15b	0.02390354
133	0x3cf4553a	0.029825795
134	0x3d17f3c7	0.03709772
135	0xbbfd70c4	-0.00773439
136	0x3b9c7203	0.0047743334
137	0xbc725359	-0.014790379
138	0xbc496835	-0.012292911
139	0xbc264b14	-0.010149736
140	0xbbd0dbdb	-0.006373865
141	0xbc817c73	-0.015806412
142	0xbcf4f611	-0.02990249
143	0x3cca1117	0.024666352
144	0x3d0ebcbe	0.034847967
145	0xbcd481cc	-0.025940798
146	0x3c5a714f	0.013332679
147	0x3cbc67e7	0.022998763
148	0x3c9dfa99	0.019284533
149	0x3ce0c2c8	0.027436629
150	0x3cbdb423	0.023157185
151	0xbc8cb9e9	-0.017178493
152	0xbc3d3722	-0.011548789
153	0xbc14bdd5	-0.009078463
154	0x3c0ec34c	0.008713555
155	0xbd1a47f9	-0.037666295
156	0xbc8c3212	-0.01711372
157	0xbd0f2d51	-0.034955326
158	0xbc936467	-0.017992212
159	0x3ce24dab	0.027624926
160	0x3c5d7240	0.013516009
161	0x3cf7ba23	0.030240124
162	0x3b50f717	0.0031885558
163	0x3c3bf99c	0.011473086
164	0xbce6b06f	-0.028160302
165	0x3bafd849	0.0053663594
166	0xbccde85a	-0.025135208
167	0xbd05e6c1	-0.032690767
168	0x3d2a5683	0.04158641
169	0xbba71f1d	-0.0051001445
170	0xbcd7459c	-0.02627831
171	0x3ce2ec64	0.02770061
172	0xbcda5f62	-0.02665681
173	0xbc324a51	-0.010881976
174	0xbcf8f806	-0.030391704
175	0xbc7eda7f	-0.015555023
176	0xbca77375	-0.020440796
177	0x3d21133a	0.039324977
178	0x3cdf373c	0.027248017
179	0xbc2fe385	-0.010735397
180	0x3d02def3	0.031950902
181	0xbd0c5fc3	-0.034271013
182	0xbd0512ed	-0.032488752
183	0xbc2db52c	-0.010602277
184	0x3c1d00c8	0.009582706
185	0x3c805924	0.015667506
186	0x3b6e52bf	0.0036365238
187	0x3cf07988	0.029354826
188	0xbcb40bae	-0.021978226
189	0x3caa5ea0	0.020797074
190	0x3d19e7b8	0.0375745
191	0x3c4742d4	0.012161929
192	0xbc37289b	-0.011179115
193	0x3bc05ff1	0.005870812
194	0x3cc07696	0.023494046
195	0xbd10299f	-0.035195943
196	0x3d152839	0.036415312
197	0xbcb8edce	-0.022574332
198	0x3c5598c1	0.013036908
199	0x3c90abd1	0.017660053
200	0x3d1345e2	0.035955317
201	0x3cd9aae3	0.026570743
202	0xbcc3bd05	-0.023893842
203	0xbb3a8726	-0.0028461902
204	0xbb84621b	-0.0040400154
205	0xbccd69ef	-0.025074927
206	0xbc807492	-0.015680585
207	0xbcc03f94	-0.023467816
208	0xbb7deded	-0.003874655
209	0x3bc06f62	0.005872653
210	0x3cf00f22	0.02930409
211	0x3ccbfb86	0.02490021
212	0xbca68bb8	-0.020330295
213	0x3c759417	0.014988921
214	0x3cc9e3e8	0.024644807
215	0x3cfaf32c	0.030633532
216	0x3cbc6472	0.022997115
217	0x3b26bf31	0.0025443549
218	0xbccb4ca5	-0.02481682
219	0x3d20f03e	0.039291613
220	0x3d17e933	0.03708763
221	0x3d1769b1	0.03696603
222	0x3cb36710	0.02189973
223	0x3d13130d	0.03590684
224	0xbc324de8	-0.010882832
225	0xbc356518	-0.011071466
226	0x3d033cec	0.03204052
227	0x3d1794c6	0.037007116
228	0xbcf8f0a8	-0.030388191
229	0x3c959ac5	0.018262276
230	0x3ce35c12	0.027753863
231	0x3d184e28	0.03718391
232	0xbcd4f8da	-0.025997568
233	0x3cbb4b91	0.022863181
234	0x3bb0666a	0.0053833025
235	0x3d0cbde1	0.03436077
236	0xbbe63e29	-0.007026453
237	0xbc24e2e6	-0.010063862
238	0xbc26e633	-0.01018672
239	0xba0dd9a4	-0.0005411154
240	0x3c21955d	0.009862271
241	0xbcc9549d	-0.02457648
242	0xbb696246	-0.0035611554
243	0xbc687799	-0.014188671
244	0xbbbb1b30	-0.005710028
245	0x3cad7ad6	0.021176737
246	0x3bd794d6	0.006579022
247	0xbb9466c1	-0.004528851
248	0xbce96701	-0.028491499
249	0x3b8ff190	0.00439281
250	0xbcef5110	-0.029213458
251	0xbc2e1366	-0.010624742
252	0xbb8cb24d	-0.004293716
253	0xbcfc74fb	-0.0308175
254	0xbc481ab3	-0.012213397
255	0xbd14b43f	-0.03630471
