try02_RBM/save_example.pt (torch, 5603 bytes, 3 tensors)

W f4 [100, 10]
-0.3301905 -0.80406255 -0.5174417 0.37847418 -0.7698808 0.3321198 1.8442953 0.5039032
0.75436914 0.14311662 -0.4346315 -0.5824129 -0.3655062 1.2240543 -0.7005972 1.6359531
0.37915966 0.29651603 0.3971192 -0.6698512 1.1427346 -0.28906995 -0.20570187 0.7660946
-0.38454574 -0.56306076 -0.16482826 0.47008717 0.27117956 0.34064955 -0.80995953 -0.8084647
-0.48918992 -0.66193223 -0.72255296 0.6729357 -0.4585032 -0.0067338026 -2.052001 -1.7250682
-1.268007 0.7715833 -2.1611612 -0.9159201 -0.927824 -0.07781915 -0.58817285 0.11106342
-0.6397478 -0.40996945 -0.8414283 -0.78512925 -0.6100791 -0.9194434 -0.5721303 0.18598561
-1.1113085 0.9614691 0.1224992 -1.1294397 -1.142841 -0.43245357 1.8265772 -0.30284503
-0.41896167 -0.24635132 -0.17707804 -0.1941584 0.9776486 1.7209939 -0.84160894 -0.65139776
-0.93150824 0.8575552 -0.64373153 0.66016555 -1.0416294 0.8729154 -2.1296098 -0.22430265
0.2909062 0.18197449 -0.52813876 -0.37255767 -1.5433532 -0.062437512 -1.7044874 0.44962293
0.46627492 -0.7899205 0.90589976 -0.5301959 0.8775483 0.1235732 1.9145914 -0.694556
-0.42382592 0.028774984 -1.3502673 1.470339 0.8111435 0.34782696 -0.3373093 -0.0018990133
-0.51460576 1.0468503 0.18500502 0.5530002 -0.66802144 0.7241998 -2.3220406 -0.5669601
1.0243317 2.132716 1.063323 -2.44188 -0.12438068 -0.22906962 0.22251591 -1.219222
-0.34004784 0.085970744 -1.8375372 0.8361625 -0.08110135 -0.9122189 0.19949678 0.056088317
-0.6566788 1.0019851 0.20495702 -0.8271302 -0.8252873 -0.7354919 -1.7146134 -0.025706187
1.5541837 -1.0685892 0.017582966 -0.2675564 -0.6900493 -1.2710733 0.8473877 -0.57821524
-0.4746471 0.38595197 -0.029741758 0.77856696 -0.23225391 -1.6040996 -1.384998 -0.0769705
-1.0066147 -1.192988 0.3274713 -0.52631587 -1.0307455 -0.5750274 -0.21641023 -0.040517874
-1.2061415 -0.909123 0.39274657 -0.7728173 -0.24496908 -0.561856 -0.08780822 0.2773694
0.73620355 -0.9353816 -0.776292 -0.41089615 -0.70935065 0.39387333 0.10527853 0.71588767
-0.49271184 -0.3918486 -0.8307845 -0.8982029 -0.5523285 -0.7332078 -0.61312556 -0.45536652
-0.31634665 -1.4060442 0.5267549 -1.5955641 0.9849469 -0.4872039 0.23702773 -1.1019993
0.8373262 -1.1501235 0.12077696 -0.4614344 -2.0026903 -1.146451 0.19605203 -0.8657147
0.02235055 -1.120378 0.06729261 -1.2913193 0.08212141 0.00923627 -0.833574 -0.036692105
0.49111307 1.1444879 0.23544472 -0.35783505 -0.5644591 -1.5364926 0.528262 -0.6797761
-0.18190707 0.62437516 -0.025943693 1.2987924 1.0964137 -1.7983867 -1.3826902 -1.0577471
0.18505071 -0.09741925 0.6912638 -0.7773633 -0.77331346 0.50635445 -0.526572 0.32365692
0.4825555 0.123960644 0.7679854 -0.115126155 -0.48529363 0.6455812 -0.63352996 -1.1399989
0.778025 0.80906177 0.27441505 -1.1563711 0.2657414 0.54937446 0.22929531 0.49658483
0.58274555 -0.13049051 -0.10864943 0.5541916 0.118118465 1.0624423 1.0056247 0.11548555
00000000: bb0e a9be 0bd7 4dbf 0f77 04bf 5ec7 c13e
00000010: e816 45bf 9b0b aa3e de11 ec3f cdff 003f
00000020: 561e 413f 2a8d 123e 0588 debe 0319 15bf
00000030: a123 bbbe d0ad 9c3f 575a 33bf e966 d13f
00000040: 3721 c23e f3d0 973e 3553 cb3e 5e7b 2bbf
00000050: 2145 923f fa00 94be 83a3 52be c71e 443f
00000060: 2ee3 c4be c024 10bf bdc8 28be 44af f03e
00000070: 0cd8 8a3e 9e69 ae3e 8259 4fbf 8bf7 4ebf
00000080: 1a77 fabe 6474 29bf 3bf9 38bf 8445 2c3f
00000090: eec0 eabe 3ba7 dcbb fc53 03c0 09cf dcbf
000000a0: 0e4e a2bf 7c86 453f 7750 0ac0 bd79 6abf
000000b0: e085 6dbf a65f 9fbd 7f92 16bf 3875 e33d
000000c0: 83c6 23bf 84e7 d1be d867 57bf 3bfe 48bf
000000d0: 252e 1cbf a560 6bbf 2277 12bf 0373 3e3e
000000e0: 5b3f 8ebf d722 763f dce0 fa3d 7b91 90bf
000000f0: 9d48 92bf 8e6a ddbe 48cd e93f 810e 9bbe
00000100: 2582 d6be 8543 7cbe f253 35be 76d1 46be
00000110: 2e47 7a3f 8749 dc3f af73 57bf 01c2 26bf
00000120: 5377 6ebf bd88 5b3f 97cb 24bf 9c00 293f
00000130: 1d54 85bf 6277 5f3f 874b 08c0 98af 65be
00000140: a8f1 943e 8557 3a3e 1a34 07bf e1bf bebe
00000150: 998c c5bf 7abe 7fbd a52c dabf fa34 e63e
00000160: 96bb ee3e 3b38 4abf 0ce9 673f ebba 07bf
00000170: 01a7 603f f213 fd3d 5511 f53f 6cce 31bf
00000180: b6ff d8be 84b9 eb3c 8fd5 acbf 1134 bc3f
00000190: 1aa7 4f3f 6016 b23e ceb3 acbe 50e8 f8ba
000001a0: 34bd 03bf 31ff 853f f571 3d3e 6c91 0d3f
000001b0: 7403 2bbf 2865 393f 509c 14c0 4c24 11bf
000001c0: 4d1d 833f 6b7e 0840 f81a 883f c347 1cc0
000001d0: 4cbb febd 3a91 6abe 36db 633e 770f 9cbf
000001e0: c01a aebe 6e11 b03d 6b34 ebbf bf0e 563f
000001f0: 7718 a6bd 2e87 69bf e248 4c3e ddbc 653d
00000200: 1a1c 28bf 0c41 803f 41e0 513e cebe 53bf
00000210: 0746 53bf 3249 3cbf 7478 dbbf c895 d2bc
00000220: 7eef c63f 88c7 88bf 270a 903c 27fd 88be
00000230: 12a7 30bf 88b2 a2bf 66ee 583f ea05 14bf
00000240: f204 f3be 7f9b c53e fda4 f3bc 2a50 473f
00000250: f8d3 6dbe 2353 cdbf 9d47 b1bf b6a2 9dbd
00000260: c0d8 80bf d5b3 98bf 51aa a73e a3bc 06bf
00000270: 78ef 83bf ff34 13bf a59a 5dbe 12f6 25bd
00000280: d862 9abf 49bc 68bf 1416 c93e 5bd7 45bf
00000290: 2dd9 7abe cbd5 0fbf ccd4 b3bd 5d03 8e3e
000002a0: d677 3c3f 2b75 6fbf 13bb 46bf fb60 d2be
000002b0: 0198 35bf c4a9 c93e 459c d73d 6a44 373f
000002c0: ba44 fcbe 61a0 c8be 4bae 54bf a0f0 65bf
000002d0: 6765 0dbf 82b3 3bbf ccf5 1cbf cd25 e9be
000002e0: 30f8 a1be 42f9 b3bf 69d9 063f 723b ccbf
000002f0: 7b25 7c3f ca72 f9be 66b7 723e 500e 8dbf
00000300: 035b 563f 3f37 93bf e959 f73d 2141 ecbe
00000310: 142c 00c0 e8be 92bf ddc1 483e 7b9f 5dbf
00000320: 8018 b73c 8c68 8fbf b5d0 893d f349 a5bf
00000330: 452f a83d b953 173c 1b65 55bf 764a 16bd
00000340: 2c73 fb3e 947e 923f 6c18 713e 2836 b7be
00000350: 6480 10bf caab c4bf 2e3c 073f ce05 2ebf
00000360: d945 3abe 0dd7 1f3f de87 d4bc d43e a63f
00000370: 4957 8c3f 8931 e6bf fefb b0bf 4264 87bf
00000380: ef7d 3d3e be83 c7bd aaf6 303f 4801 47bf
00000390: dff7 45bf 72a0 013f 6ccd 06bf 5cb6 a53e
000003a0: 8411 f73e 14df fd3d b19a 443f 43c7 ebbd
000003b0: 6878 f8be cf44 253f 052f 22bf 7ceb 91bf
000003c0: a52c 473f ac1e 4f3f 2180 8c3e f803 94bf
000003d0: 420f 883e cea3 0c3f 64cc 6a3e 5e40 fe3e
000003e0: d02e 153f 4e9f 05be 9883 debd 80df 0d3f
000003f0: 18e8 f13d 1cfe 873f 4fb8 803f b083 ec3d

vb f4 [1, 10]
-0.16005561 -0.3054828 -0.17497635 -0.28323665 -0.3539262 -0.29047146 -0.22202528 -0.23143858
-0.16877462 -0.26231396
00000000: 9ee5 23be 3e68 9cbe 002d 33be 6504 91be
00000010: d135 b5be adb8 94be 985a 63be 3cfe 6cbe
00000020: 41d3 2cbe 044e 86be

hb f4 [1, 100]
0.023946078 -0.09984509 -0.15106057 0.60840625 0.5233241 0.45784435 -0.12449585 0.05485149
0.44188532 -0.28223455 -0.2458305 -0.20619476 -0.31482247 0.34149614 0.277609 0.5150277
0.33360445 -0.08459648 0.42763138 0.29126835 0.15691583 -0.16920623 0.28562734 -0.28033367
-0.3207595 -0.5302665 -0.29767272 -0.27598262 0.45727634 -0.30569506 0.25859416 -0.18816146
-0.32999054 0.33944112 0.31251523 0.52366406 -0.013004676 -0.28239587 -0.2572701 0.4154766
0.3075615 -0.19755785 -0.45555678 -0.18540478 -0.39769822 -0.23105913 -0.01929271 0.2416698
0.2985413 0.32057244 -0.26720402 -0.073946856 -0.04173917 0.549241 -0.24817859 -0.2917119
0.37156388 -0.25837225 0.3842282 0.44258672 0.017907972 0.48075366 0.2525098 -0.22823286
-0.4213089 0.18258548 0.030044066 0.07787695 -0.07254332 -0.1060104 -0.2916118 -0.3141418
-0.27990997 -0.33226845 0.2761321 0.16521162 -0.048797697 0.30429822 0.33269694 0.3234536
-0.19203632 -0.21350688 0.20127557 0.37526935 0.05478346 -0.28916284 0.508738 0.35608283
-0.5380709 -0.33746135 0.48948014 0.141282 0.36668944 0.21261817 0.3110147 -0.23506926
0.55029225 0.0064785755 -0.30094135 0.36146972
00000000: 912a c43c 957b ccbd 9faf 1abe 83c0 1b3f
00000010: 91f8 053f 936a ea3e aef7 febd f5ab 603d
00000020: cb3e e23e 0c81 90be feba 7bbe b824 53be
00000030: 6930 a1be 95d8 ae3e c422 8e3e dbd8 033f
00000040: 34ce aa3e eb40 adbd 80f2 da3e 2021 953e
00000050: 8bae 203e 6644 2dbe bf3d 923e e587 8fbe
00000060: 973a a4be 8cbf 07bf 8f68 98be 984d 8dbe
00000070: 2020 ea3e 1084 9cbe 7466 843e 66ad 40be
00000080: 85f4 a8be 3acb ad3e ff01 a03e d90e 063f
00000090: 9111 55bc 3196 90be e8b8 83be 59b9 d43e
000000a0: b378 9d3e 9b4c 4abe bd3e e9be c0da 3dbe
000000b0: 1a9f cbbe c49a 6cbe bf0b 9ebc 4a78 773e
000000c0: 68da 983e 1222 a43e f7ce 88be 7371 97bd
000000d0: b1f6 2abd 0f9b 0c3f 8722 7ebe 435b 95be
000000e0: 9f3d be3e 5e49 84be 8fb9 c43e ba9a e23e
000000f0: bdb3 923c 5825 f63e f748 813e e0b5 69be
00000100: cdb5 d7be b0f7 3a3e f91e f63c f37d 9f3d
00000110: 9891 94bd fb1b d9bd 244e 95be 32d7 a0be
00000120: 5c50 8fbe 171f aabe 3061 8d3e 3c2d 293e
00000130: 18e0 47bd facc 9b3e 4157 aa3e b69b a53e
00000140: 2ba5 44be 8ca1 5abe 2f1b 4e3e 4e23 c03e
00000150: 9f64 603d 270d 94be a73c 023f 7d50 b63e
00000160: 04bf 09bf bcc7 acbe 249d fa3e 3bac 103e
00000170: b8be bb3e 94b8 593e 523d 9f3e ffb5 70be
00000180: f4df 0c3f 3b4a d43b fc14 9abe 8f12 b93e
